mnist_weights_biases.npz (npz, 408138 bytes, 4 tensors)

hidden_weights f4 [784, 128]
000000 f8 ec fa 3c 78 84 2e bd 52 96 7e 3d 74 bb 89 bd
       0.030630574 -0.0426068 0.062155075 -0.06725207
000010 fa e8 7c 3d f8 6d 64 3c d9 6c 2b bd ac 46 e8 3c
       0.06174562 0.013942234 -0.041851852 0.028354011
000020 25 e3 60 bd 65 41 8f bd e4 ea 15 bd e7 c0 96 3d
       -0.054904122 -0.06994895 -0.036600962 0.07361012
000030 af 3f a1 bd ba 68 bc bc 89 e6 8d 3d 76 30 0e 3d
       -0.07873475 -0.022999156 0.06928737 0.034714185
000040 e0 19 3a bd ac 50 e6 bc 3e 5b 18 3d 24 f0 75 bd
       -0.045434833 -0.02811464 0.03719639 -0.06004347
000050 de 49 6b bd 9a 82 20 3d 06 b9 8b bd 3c 42 88 bc
       -0.057443492 0.03918705 -0.068224 -0.016633146
000060 78 05 ea 3c 8e 0d 9b bd fd f0 46 bd b0 61 8c bc
       0.02856706 -0.07570945 -0.048569668 -0.017136425
000070 a4 ed 10 bd 20 7e 8d bd c0 b5 0d 3c 62 9d 22 bd
       -0.03538288 -0.06908822 0.00864929 -0.039700873
000080 92 84 67 3d b0 29 eb bb 40 00 d9 bb f0 2b a0 bc
       0.056522913 -0.0071766004 -0.0066223443 -0.019552201
000090 e3 8f 83 3d dd aa a0 bd 80 3d 8f 3b 22 a9 24 bd
       0.064239286 -0.078450896 0.004371345 -0.04020036
0000a0 10 33 ca 3b c6 27 42 3d 08 f1 70 bc 88 df 33 3c
       0.006170638 0.047401212 -0.014705904 0.010978587
0000b0 c8 a3 12 bd 82 78 7b 3d c6 55 c8 bc b6 c0 7f 3d
       -0.035800725 0.061394222 -0.024454962 0.062439643
0000c0 1e 39 41 3d ed b7 a1 3d 89 11 8e bd be ca 51 3d
       0.04717361 0.07896409 -0.06936938 0.05121874
0000d0 f8 96 25 bc c7 95 8c 3d 6b ab 7c bd 50 0f 13 bd
       -0.010106795 0.06864505 -0.061686914 -0.035903275
0000e0 10 cd a6 3b 9f 3b a2 bd 16 b5 06 3d c0 e4 4b bd
       0.0050903633 -0.07921528 0.03288754 -0.0497787
0000f0 18 21 93 bd 40 59 d0 bb 8e a8 30 3d e8 c3 17 3d
       -0.071840465 -0.0063582957 0.043129496 0.037052065
000100 9a f7 23 bd d6 de 56 3d 90 63 88 bd 22 e6 57 3d
       -0.040031053 0.052458607 -0.06659615 0.052709706
000110 60 63 d8 3b 22 20 54 3d bd b8 9a 3d 30 cf ad 3c
       0.0066036433 0.051788457 0.07554767 0.021216959
000120 fb 6e a4 3d 6e e2 7f 3d a8 40 47 3c 48 52 78 bc
       0.0802898 0.0624718 0.012161411 -0.015156336
000130 44 1f 6b bd b0 81 37 3c a8 95 15 3c fe 0f 76 3d
       -0.057402864 0.0112003535 0.009129919 0.060073845
000140 0b 29 95 3d 21 60 a1 bd 80 70 a1 3b 55 df 27 bd
       0.07283219 -0.07879663 0.004926741 -0.04098447
000150 88 71 02 bc d3 02 a0 bd 0a 25 a5 bd a5 67 9a 3d
       -0.007961638 -0.07813039 -0.08063705 0.075393
000160 76 38 7e 3d dc a4 8d 3c 40 d1 92 bb 3b d6 a2 3d
       0.062065564 0.017290525 -0.004480511 0.079510175
000170 e8 43 62 3c 00 60 e2 bb 17 d7 8b 3d 50 fe c0 3c
       0.013810135 -0.0069084167 0.068281345 0.023558766
000180 2e f3 54 3d 84 6f 22 3d 16 ff 5c 3d 46 60 99 bd
       0.051989727 0.03965713 0.053954206 -0.07489066
000190 ee ad 40 3d 12 ca 91 bd b8 00 4e bc 33 a8 97 3d
       0.047040872 -0.0711862 -0.012573414 0.07405128
0001a0 80 12 5e 3c 22 24 68 3d 32 a2 12 3d 80 28 3f 3a
       0.013554215 0.056675084 0.035799213 0.0007292107
0001b0 20 00 58 3b da e4 3a 3d f0 b7 ff 3b 10 d8 bc bb
       0.003295906 0.045628406 0.0078039095 -0.0057630613
0001c0 2e 41 71 bd 30 28 5c bc 3a ec 88 bd c0 f5 c1 3c
       -0.05890005 -0.013437316 -0.06685682 0.023676753
0001d0 77 e9 66 bd 20 4e 9f bb 1c 4a d2 bc 32 e3 8c bd
       -0.056374993 -0.004861608 -0.025670104 -0.068792716
0001e0 7f a7 9e 3d c9 46 76 bd 90 3d 8a bb ed 01 94 bd
       0.07746791 -0.0601261 -0.0042187646 -0.0722693
0001f0 2b 45 8d 3d 30 5d 7b 3c 93 54 9b 3d ac 9e cf 3c
       0.06897958 0.015342042 0.075844906 0.025344215
000200 58 93 50 bc 4b cb 93 3d a7 21 a5 3d 2c 44 e9 3c
       -0.012730442 0.072165094 0.08063059 0.02847489
000210 e8 d7 5e bc b0 39 b0 3c 98 12 65 bd f6 0f 34 3d
       -0.013601281 0.021511883 -0.055925936 0.043960534
000220 7c f6 b5 bc d5 f4 8b 3d a0 14 53 bb b9 6f 3c bd
       -0.02221226 0.068338074 -0.0032208338 -0.046004985
000230 60 3f 25 bc 30 da df 3b 88 e1 2c bd 90 d7 7c bc
       -0.010085911 0.00683143 -0.04220727 -0.0154322535
000240 6e 34 5c bd f0 a6 df bb 81 d1 a2 3d a8 24 54 3c
       -0.05376094 -0.0068253204 0.07950116 0.012948193
000250 78 e2 30 3d 98 65 39 bc 04 98 20 3d 00 3f 07 3a
       0.043184727 -0.011315726 0.039207473 0.0005159229
000260 26 15 41 bd 18 f2 16 3d cd 6c 84 3d b0 05 fe bb
       -0.04713931 0.036851972 0.064660646 -0.007752143
000270 33 fd 6e bd c9 74 3b bd 70 2a e0 bc 00 f4 84 bb
       -0.05834694 -0.045765672 -0.027363986 -0.0040574074
000280 ea 46 91 bd e1 c8 a2 bd c3 51 a1 3d b8 92 bb bc
       -0.07093604 -0.07948471 0.07876923 -0.02289711
000290 33 36 3d bd 70 43 90 bd 65 08 1d bd 74 0f 7e bd
       -0.046194267 -0.07044113 -0.038338084 -0.062026456
0002a0 68 d0 8b 3c 24 3c 2f 3d b8 f2 80 bc ce fa 6d 3d
       0.01706715 0.042781964 -0.015740737 0.058100514
0002b0 e8 44 96 bc 80 b4 92 3b 21 51 8f 3d 1c 8a 6f bd
       -0.018343404 0.0044770837 0.06997896 -0.05848132
0002c0 ae 82 6b 3d 2c d1 d7 3c 1e 6f 44 bd af 8d 45 bd
       0.057497673 0.026344858 -0.047957532 -0.048230823
0002d0 08 3f 87 3c 6c d8 7d bd 92 36 34 3d af 60 96 bd
       0.016509548 -0.061973974 0.043997355 -0.0734266
0002e0 a4 7e 74 bd d5 18 2e bd fd 0c 0d bd dd 3a 99 bd
       -0.059691086 -0.04250415 -0.034436215 -0.074819304
0002f0 00 c5 5a 3b ee da 5f 3d 18 79 fa 3c b8 ba 2b 3c
       0.0033381581 0.054652147 0.03057532 0.010481529
000300 fa 81 67 3d 70 a6 24 bd b0 5d e1 3c 73 b5 a2 3d
       0.05652044 -0.04019779 0.027510494 0.07944765
000310 f8 de b2 3c 21 8c 0d bd 77 2b 81 3d 50 ce f8 3b
       0.021834835 -0.034557465 0.063071184 0.0075929537
000320 00 e7 08 bb ca 50 4d 3d 08 09 5b bd e8 92 10 bc
       -0.002088964 0.050125875 -0.05347541 -0.008824088
000330 5e af 80 bd 55 70 91 3d b8 c3 26 3c de c2 70 3d
       -0.06283449 0.07101504 0.010178499 0.05877959
000340 8a 96 ba bc 22 9a fe bc 6b 92 60 bd d4 2c d5 3c
       -0.02277686 -0.031079356 -0.054827135 0.026022352
000350 c0 0e f7 3b 6c b2 87 bc a8 d4 7b 3c 10 f6 35 bd
       0.0075396 -0.01656457 0.015370525 -0.044424117
000360 ae f1 4b 3d 00 89 01 3b 2a 93 64 3d 0a 76 e2 bc
       0.04979103 0.0019765496 0.05580441 -0.027644176
000370 5f e9 97 bd dc 2d 2d 3d 8a d3 4d 3d 20 a8 2e 3b
       -0.07417559 0.042280063 0.050250567 0.0026650503
000380 29 13 89 3d ae 7a 12 3d 6c 3b a9 bc ec 8f 6a bd
       0.06693108 0.035761528 -0.020658217 -0.05726616
000390 e0 fc ca 3c 94 04 0a 3d ca 52 71 3d 5d 83 29 bd
       0.024778783 0.033695772 0.058916844 -0.041385043
0003a0 0a a9 01 3d 42 8a 01 3d c5 9c 99 3d 44 7f 8b bc
       0.03165535 0.031625994 0.075006045 -0.017028458
0003b0 bf ba 9b bd 85 4c 98 3d 04 f4 b8 3c b1 89 9f 3d
       -0.07603978 0.0743647 0.022577293 0.077899344
0003c0 b0 1e 19 3c ce 85 6e 3d 68 fa 36 3c 8c f4 b2 3c
       0.009345695 0.058233075 0.0111681 0.021845125
0003d0 18 69 b4 3c 56 d7 50 3d ea b6 ff bc 12 19 7f 3d
       0.022022769 0.05098661 -0.03121515 0.06227977
0003e0 c8 96 f2 3c 04 d3 6d bd 64 36 99 bd b7 ef 8a 3d
       0.029612914 -0.05806257 -0.07481077 0.06784003
0003f0 c0 25 58 3b d0 71 9d 3c f2 9a 0c bd b2 a6 15 3d
       0.0032981485 0.01921931 -0.034327455 0.036535926

hidden_biases f4 [128]
000000 36 81 6b 3e de 18 a7 bd a0 fd 75 3d 08 e1 c2 3d
       0.22998509 -0.0815904 0.06005633 0.095155776
000010 59 83 c7 3d 37 db 98 bd 30 f3 0d bd 1a ab 2d 3e
       0.097418495 -0.07463687 -0.03465575 0.16959801
000020 db 66 e5 bd 9b 83 9d bd ee d4 a1 3c e6 79 1e ba
       -0.11201259 -0.076911174 0.019754853 -0.0006045386
000030 f6 bf a0 3c 7e 5b 6b 3d 33 70 86 3d c0 99 99 3b
       0.019622784 0.0574603 0.06564369 0.004687518
000040 e3 c9 4f 3e b5 3a b9 bd b5 69 2a be 21 23 6a 3c
       0.20291857 -0.090444006 -0.16641887 0.014290602
000050 5d 5b 81 bd f6 ba 56 bd c9 7c 59 bc a0 9b e9 3c
       -0.06316254 -0.052424394 -0.01327438 0.02851659
000060 e0 b7 2e 3e dd c5 07 3e 6c 0d ac 3d b0 5d 03 3e
       0.1706233 0.13259073 0.084009975 0.12828708
000070 e1 12 cf bc 63 00 73 3e 68 3f 41 3d 8d 0d 2b 3d
       -0.025277557 0.23730616 0.04717961 0.04176097
000080 b1 9f 28 3e ea 64 0d 3e 34 ff 43 3d ce 8b e6 3d
       0.16467167 0.13808027 0.047850803 0.112571344
000090 16 38 20 3d c8 b7 8d 3d 84 b3 c6 3d 0e 76 cd 3d
       0.039115988 0.06919819 0.09702209 0.10032283
0000a0 40 67 c5 3d 03 d2 ab 3c f4 85 92 bc 70 4f c0 3d
       0.09638834 0.020974165 -0.01788614 0.093901515
0000b0 30 a1 a7 bc a1 26 a0 bd a2 8a 41 3d b3 e8 47 3e
       -0.020462602 -0.07819868 0.04725135 0.19522361
0000c0 be 0d 36 3d 76 85 03 be e2 84 23 bd 1e a7 23 3e
       0.0444467 -0.1284388 -0.03992165 0.15981719
0000d0 f4 f8 7c 3d f4 c0 2a bd 76 e1 11 3d 43 b3 45 bc
       0.061760858 -0.04168792 0.035615407 -0.012066665
0000e0 80 e9 0a bd 48 f7 ac bb 4e ce 24 3c 89 67 4a bd
       -0.03391409 -0.0052785017 0.0100589525 -0.049415145
0000f0 18 fd ec bd 0d 2a 81 3d 8e 29 2f 3d 92 db 27 3c
       -0.11571711 0.06306849 0.04276424 0.010245221
000100 a3 fe 22 bc 89 5d a4 bd fa 5c 4f bd 12 7d 1c 3d
       -0.009948405 -0.08025653 -0.05062578 0.038205214
000110 33 6b 9a 3d 0b ed 8f 3d d1 30 0e 3e 0d e4 a9 3d
       0.07539978 0.07027634 0.1388581 0.0829545
000120 a0 84 ec 3c a8 b9 03 be ac 97 05 3e 54 24 61 3d
       0.028871834 -0.12863791 0.1304614 0.054966286
000130 9b bc f3 3d c7 48 e8 3a e7 d3 ec bd a9 98 a4 3d
       0.11901208 0.0017721885 -0.11563855 0.0803693
000140 b3 44 f7 3d 7f 1c 01 3e 24 37 e1 3d 1f ea 25 bc
       0.1207365 0.12608527 0.10996845 -0.01012662
000150 fb d9 6d 3d c6 78 9c 3b 04 10 42 3e e1 4d 81 bd
       0.05806921 0.0047751395 0.18951422 -0.06313682
000160 94 14 31 3c 7e 7c 48 3e 37 1c 07 bd db 97 0e 3e
       0.010808129 0.1957874 -0.032985892 0.13925116
000170 8a 9f e3 3d eb 59 8d bd b6 fa 92 bb 59 a5 37 3e
       0.11114414 -0.06901916 -0.0044854535 0.17934169
000180 91 4f 29 3e 4d 4c 01 3e f8 e1 14 3c fc 4e 0f 3e
       0.16534258 0.12626763 0.009087078 0.13994974
000190 20 24 ae bc 7d ea 1c 3e d4 11 15 be 68 e4 e2 bb
       -0.02125746 0.15323825 -0.14557582 -0.006924201
0001a0 13 64 d5 3d 1b 55 44 bc 86 25 23 bd 3f b3 8b 3c
       0.10419478 -0.011983181 -0.039830707 0.017053245
0001b0 74 9f ae 3d 6d c4 07 3e 60 7f 5f 3e bd f9 05 3d
       0.08526507 0.13258524 0.21825933 0.032708872
0001c0 06 ec e5 bc 1d a2 79 3c 55 c1 b0 bd 1f 72 32 3d
       -0.028066646 0.015236405 -0.08630625 0.043565866
0001d0 78 d8 a5 bc 00 23 f8 bd 25 43 4c 3d f7 1d b5 3c
       -0.020244822 -0.12116051 0.04986872 0.022109015
0001e0 f8 23 63 3e a6 0e 40 3e 11 8c c5 bd 70 16 9a 3d
       0.2218169 0.18755588 -0.09645856 0.07523811
0001f0 23 5b c4 3c 9a a0 a3 bd 7f ed ce 39 ef b5 3f 3d
       0.023969239 -0.07989617 0.0003946833 0.046804365

output_weights f4 [128, 10]
000000 b3 e9 68 3d d7 aa 6c bc 22 3f ac be a3 55 d8 bb
       0.056863498 -0.014445028 -0.33641917 -0.0066020056
000010 9f 32 a6 3e 5b d4 06 be 38 7f 8d 3e 74 07 41 3f
       0.32460496 -0.13166945 0.27636123 0.75402
000020 73 5f 4e bf fb fc 38 bf ce f4 4c 3e 9b 28 2f be
       -0.80614394 -0.7226102 0.2001526 -0.17105334
000030 7f 59 80 3d 7b 92 da 3d be 82 0f bc 53 71 33 bc
       0.0626707 0.1067247 -0.008759199 -0.010952312
000040 c7 3c 06 3e 63 b6 b2 3c fe 7b 8e 3d c6 fa bd be
       0.13109122 0.021815484 0.069572434 -0.37105387
000050 b4 97 c2 3e 5e 83 d3 3d c4 dc 2f 3e cc 91 a5 bd
       0.38006365 0.10327791 0.17174059 -0.08084449
000060 24 b0 a4 be 24 21 79 3d b3 14 f2 3d b5 34 f3 bd
       -0.32165635 0.06082262 0.11820354 -0.118752874
000070 b8 d3 fb be 08 e7 92 be ff e1 69 3e c8 36 8a bd
       -0.49184966 -0.28691888 0.22840117 -0.0674873
000080 83 4e a5 3e 81 8b fa 3d 27 18 5c bf 8b a8 af 3e
       0.32286462 0.122336395 -0.85974354 0.34308276
000090 af 65 11 bf 1d 75 f4 be 4b 79 41 bf eb b0 01 3d
       -0.5679578 -0.477456 -0.75575703 0.031662863
0000a0 7b 9e 91 be 7e 0a 00 be 0a b7 66 bd 7e c1 b4 3e
       -0.28441224 -0.12504002 -0.056326903 0.35303873
0000b0 83 d9 4d bd fb 55 35 bf 53 1a 1f 3f e7 2c 4e 3e
       -0.050256263 -0.7083432 0.6214954 0.20134316
0000c0 7e 8a 0a bf 4d 01 d1 3d 15 2f cc 3c 87 44 99 be
       -0.5411757 0.10205326 0.024924794 -0.29935095
0000d0 0a f9 42 3d 7f 6f 9c 3e e6 40 49 3c 46 4e ca be
       0.047600783 0.30553815 0.012283539 -0.39512843
0000e0 55 4c be be f1 b7 83 bd 11 56 ce bd 4d d8 0b bf
       -0.37167612 -0.064315684 -0.100750096 -0.54626924
0000f0 1c 7d 55 3e 9e f0 6c bd 06 da 05 3f 2f 04 be be
       0.20848507 -0.057846658 0.522858 -0.37112567
000100 34 f3 bf 3d fc 47 8b be 10 1c ca 3e a4 7b 1a bb
       0.09372559 -0.27203357 0.39474535 -0.002357223
000110 89 39 4d bf b7 ab 96 be 88 7a 0f 3f c5 48 a2 3e
       -0.80165917 -0.29427883 0.5604634 0.31696144
000120 13 d9 10 3f b8 35 f4 3d a0 98 7b be 90 dd a0 3d
       0.5658123 0.119243085 -0.2456994 0.0785476
000130 20 32 4d bd 35 33 90 be fc 30 3c bf 66 df f5 be
       -0.05009663 -0.28164068 -0.73512244 -0.48022002
000140 af 29 03 bf 5a d5 26 be 05 d7 bc 3e 2a 86 f1 3c
       -0.5123548 -0.16292325 0.36882797 0.02948292
000150 b6 ba 90 be 51 61 44 be 47 b8 80 be 1e b4 b9 3e
       -0.2826745 -0.19177748 -0.25140592 0.3627023
000160 af 22 33 3e 72 9a 69 bf bd dd 92 be 12 e6 d6 3e
       0.174937 -0.9125129 -0.28684798 0.41972405
000170 35 25 bd bd 7c dc 11 bf 52 e0 22 bf 63 43 07 be
       -0.09235612 -0.5697706 -0.63623536 -0.132093
000180 39 bb bf 3e 43 34 e8 bd f4 ef 5a 3e 3d b7 94 be
       0.37447527 -0.11338093 0.21380597 -0.2904605
000190 1d 9b c5 be 1a 07 97 3d 56 0a 35 3e 5a 90 7b 3e
       -0.38594905 0.073744014 0.17679724 0.24566785
0001a0 b9 92 03 bf 1c 45 8b 3e 17 fc f9 be 83 ee db be
       -0.51395756 0.27201164 -0.48825142 -0.42955408
0001b0 c5 93 83 be 1f 61 08 3f c4 10 52 3d 66 3c 67 be
       -0.25698677 0.53273195 0.05128552 -0.22581634
0001c0 c4 d2 1b 3e 49 26 02 3e df 76 e1 3d 46 b9 75 be
       0.1521712 0.12709917 0.11009001 -0.23996457
0001d0 6e 46 d5 3d 28 49 24 bf f0 dd 25 3d cc 40 39 3e
       0.10413824 -0.6417413 0.04049486 0.18091124
0001e0 54 c3 51 3e 77 18 be 3e 81 82 2d 3e 19 d5 5a bf
       0.20484668 0.3712804 0.16944315 -0.8548141
0001f0 e1 a2 91 be c7 98 07 bf c2 ce 7a 3e 63 d0 2d bd
       -0.2844458 -0.52967495 0.24492934 -0.04243506
000200 88 87 f5 3e 07 b6 14 bf ef 2d 88 3d ea 2b 91 be
       0.47954965 -0.5809025 0.06649386 -0.28353816
000210 a3 6e 5f 3e cd 56 d8 bd ca 3e a1 3e 42 56 5c be
       0.21819548 -0.10563431 0.31493217 -0.2151728
000220 43 c1 9f be 06 ee 4e 3e c8 84 b7 be 39 81 8d 3e
       -0.31202134 0.20207986 -0.35843492 0.27637652
000230 87 2a ba 3e 54 25 fb bc 35 a4 45 be 2d 2e cc be
       0.3636057 -0.030657448 -0.19300921 -0.3987898
000240 de c0 c7 3e 6d 59 a1 bd 52 c0 ee bd 75 13 04 be
       0.39014333 -0.07878385 -0.11657776 -0.12898047
000250 82 e6 fe be ab c5 a3 3e d4 0e a6 3e f6 11 e6 3e
       -0.49785239 0.31986746 0.32433188 0.44935578
000260 6a 3c b6 3e 18 dc d2 be 37 74 f7 bb 6c ee f2 3b
       0.35592967 -0.41183543 -0.0075516957 0.007413676
000270 a9 c7 95 bc 29 c2 e0 3e fb 73 4c bf 9d 51 3f 3e
       -0.018283682 0.43898132 -0.7986447 0.18683477
000280 7a 79 d3 be 86 2d 7d bc 57 43 65 3e 67 52 d8 be
       -0.41303617 -0.015452748 0.2238897 -0.42250368
000290 26 8c 96 3e 06 7a 53 3e 00 cc 3a bf b0 4c 27 3e
       0.294038 0.20652017 -0.7296753 0.16337848
0002a0 7a 1d 0f 3e 0f 1f d2 3d 2c ab 78 be 56 78 c5 3e
       0.13976088 0.1025983 -0.24284047 0.38568372
0002b0 9c 79 a5 3e 23 99 21 bd 59 53 b4 be 51 08 04 3c
       0.32319343 -0.039452683 -0.3521984 0.008058623
0002c0 b4 ad a6 3e b5 4a 09 3f d6 34 10 bf 57 6e 6c bf
       0.325544 0.5362962 -0.5633062 -0.92355865
0002d0 09 a0 a4 bd b7 ce 87 3e d8 89 d0 be 00 32 93 3c
       -0.08038337 0.26524898 -0.40730166 0.017968178
0002e0 62 42 a1 3e 29 44 bd bd 7c 84 e7 3e a7 a1 23 bd
       0.3149596 -0.09241516 0.45218265 -0.039949086
0002f0 59 77 f2 be 1c 5f ee be ac fc e9 3d d3 3c e6 bd
       -0.4735668 -0.46556938 0.114251465 -0.1124207
000300 b8 99 03 bf 18 71 d9 be be d3 5c 3e 58 1b 80 3b
       -0.5140643 -0.42469096 0.21565148 0.0039095096
000310 fa 39 a1 3e 3c f8 56 3d 8d f4 da be 65 c7 1f 3e
       0.31489545 0.05248283 -0.42764702 0.15603407
000320 d9 8e 68 be 3d 5f 73 3d e5 5a aa 3e 14 06 d3 3e
       -0.22710742 0.059417 0.33272472 0.41215575
000330 9e 48 9f bf e3 e8 2a be c2 79 76 be b1 5a 02 3f
       -1.2444036 -0.16690402 -0.24069884 0.50919634
000340 44 d3 d0 be c3 c0 a0 be 35 e7 1e 3f c1 c4 ad be
       -0.40786183 -0.31397066 0.62071544 -0.33939174
000350 76 e4 10 3e 6f 4c a5 3e 5c 13 06 bf 6c d9 10 bf
       0.14149651 0.32284877 -0.5237329 -0.5658176
000360 e8 97 b5 3e a6 d9 34 3e b9 30 eb 3b 4a c0 12 3e
       0.35467458 0.17661151 0.007177439 0.14331165
000370 0a 13 17 3b 7c e7 d1 3c 7b 22 b6 3d a3 31 24 3e
       0.002305212 0.025623076 0.088932954 0.1603456
000380 9b 7a f7 be da f8 db 3c ad 22 22 3e 3d b6 f0 be
       -0.48335728 0.02685206 0.1583354 -0.47014037
000390 02 b1 48 3e fd a5 3d be 47 70 4c 3e b8 92 35 bf
       0.19598773 -0.18520351 0.19964705 -0.70927
0003a0 18 78 37 bd 56 b4 95 be e6 ed cc 3d 94 dc 5e 3e
       -0.044792265 -0.29239148 0.10006313 0.21763831
0003b0 17 96 89 3e f2 8a ec be e8 b0 93 3e 29 cf f1 bd
       0.26872322 -0.46199757 0.28845906 -0.11807091
0003c0 34 51 2c 3e 52 86 61 3e 1b c1 79 be a4 df 67 be
       0.16827852 0.22023895 -0.2439007 -0.22643906
0003d0 f9 7f 51 bf 06 64 cb 3e 88 96 a8 be 7d 2b 52 3e
       -0.81835896 0.3972475 -0.32927346 0.20524402
0003e0 3a 45 80 3e 2d 53 32 3e cc 78 ff bd b4 66 3b be
       0.25052816 0.17414542 -0.12474212 -0.18300897
0003f0 f7 ff a6 3d 03 c7 53 3d 5a 38 4f 3e 60 36 c8 3c
       0.0815429 0.051703464 0.2023634 0.02443999

output_biases f4 [10]
000000 26 a4 74 bc 92 57 db bd c1 17 80 bc 70 e8 a2 bd
       -0.014931714 -0.10710062 -0.015636327 -0.0795449
000010 83 4e 54 3d c2 d5 bc 3d 2f 64 08 be 58 d3 a4 bd
       0.051832687 0.092204586 -0.13319467 -0.08048123
000020 96 6b 31 3e fd e0 cb 3c
       0.17326197 0.024887556
